…
<div class=3D"snippet-clipboard-content notranslate position-relative overf=
low-auto"><pre class=3D"notranslate"><code>local@client:~$ python main.py T=
RAIN
Using TensorFlow backend.
[*] Loading train data and Create label.
[*] Training model..
[+] Train samples: 1410
_________________________________________________________________
Layer (type)                 Output Shape              Param #  =20
=3D=3D=3D=3D=3D=3D=3D=3D=3D=3D=3D=3D=3D=3D=3D=3D=3D=3D=3D=3D=3D=3D=3D=3D=3D=
=3D=3D=3D=3D=3D=3D=3D=3D=3D=3D=3D=3D=3D=3D=3D=3D=3D=3D=3D=3D=3D=3D=3D=3D=3D=
=3D=3D=3D=3D=3D=3D=3D=3D=3D=3D=3D=3D=3D=3D=3D
dense_1 (Dense)              (None, 50)                900      =20
_________________________________________________________________
activation_1 (Activation)    (None, 50)                0        =20
_________________________________________________________________
dropout_1 (Dropout)          (None, 50)                0        =20
_________________________________________________________________
dense_2 (Dense)              (None, 100)               5100     =20
_________________________________________________________________
activation_2 (Activation)    (None, 100)               0        =20
_________________________________________________________________
dropout_2 (Dropout)          (None, 100)               0        =20
_________________________________________________________________
dense_3 (Dense)              (None, 100)               10100    =20
_________________________________________________________________
activation_3 (Activation)    (None, 100)               0        =20
_________________________________________________________________
dropout_3 (Dropout)          (None, 100)               0        =20
_________________________________________________________________
dense_4 (Dense)              (None, 141)               14241    =20
_________________________________________________________________
activation_4 (Activation)    (None, 141)               0        =20
=3D=3D=3D=3D=3D=3D=3D=3D=3D=3D=3D=3D=3D=3D=3D=3D=3D=3D=3D=3D=3D=3D=3D=3D=3D=
=3D=3D=3D=3D=3D=3D=3D=3D=3D=3D=3D=3D=3D=3D=3D=3D=3D=3D=3D=3D=3D=3D=3D=3D=3D=
=3D=3D=3D=3D=3D=3D=3D=3D=3D=3D=3D=3D=3D=3D=3D
Total params: 30,341
Trainable params: 30,341
Non-trainable params: 0
_________________________________________________________________
Train on 1015 samples, validate on 113 samples
Epoch 1/1000
…
.listgroup-item.disabled { background-color: var(--color-canvas-subtle); }

.listgroup-item.disabled .listgroup-item-title { color: var(--color-fg-defa=
ult); }

.link-small { color: var(--color-fg-muted); transition: color 500ms ease 0s=
; }

.sub-permissions-error { max-width: unset !important; }

.not-found-octocat-wrapper { width: 71px; height: 71px; border-radius: 45px=
; }

.not-found-octocat-wrapper::after { position: absolute; top: 58px; left: 45=
px; z-index: -2; display: block; width: 4px; height: 4px; vertical-align: b=
aseline; content: ""; background: var(--color-canvas-default); border-radiu=
s: 4px; box-shadow: rgb(255, 255, 255) 0px 4px 0px, rgb(255, 255, 255) 0px =
8px 0px, rgb(255, 255, 255) 0px 12px 0px, rgb(255, 255, 255) 0px 16px 0px, =
rgb(255, 255, 255) 0px 20px 0px; animation-name: pull-string; animation-dur=
ation: 0.75s; animation-fill-mode: forwards; animation-delay: 0.5s; }

@keyframes lightbulb {=20
  0%, 8%, 14% { opacity: 0.1; }
  0%, 10%, 25% { opacity: 0.25; }
  5%, 30%, 50%, 70% { opacity: 0.5; }
  16%, 60%, 80% { opacity: 0.75; }
  90% { opacity: 0.8; }
  94% { opacity: 0.5; }
  100% { opacity: 1; }
}

.not-found-lightbulb-ani { z-index: 1; opacity: 0.25; animation-name: light=
…
  0% { stroke-dasharray: 0, 100; }
}

.sponsors-funded-dependencies-percent-circle-bg, .sponsors-funded-dependenc=
ies-percent-circle { fill: none; stroke-width: 3; stroke-linecap: round; }

.sponsors-funded-dependencies-percent-circle-bg { stroke: var(--color-done-=
subtle); }

.sponsors-funded-dependencies-percent-circle { animation: 1s ease-out 0s 1 =
normal forwards running circle-progress; }

.sponsors-goal-progress-bar { background: rgb(236, 108, 185); transition: w=
idth 0.5s ease-in 0s; }

@media (prefers-reduced-motion: no-preference) {
  .sponsors-goal-progress-bar:hover { background: linear-gradient(90deg, rg=
b(255, 211, 61) 0%, rgb(234, 74, 170) 17%, rgb(179, 75, 255) 34%, rgb(1, 25=
4, 255) 51%, rgb(255, 211, 61) 68%, rgb(234, 74, 170) 85%, rgb(179, 75, 255=
) 100%) 0% 0% / 300% 100%; animation: 2s linear 0s infinite normal none run=
ning sponsors-progress-animation; }
}

.sponsors-goal-completed-bar { background: linear-gradient(90deg, rgb(255, =
211, 61) 0%, rgb(234, 74, 170) 17%, rgb(179, 75, 255) 34%, rgb(1, 254, 255)=
 51%, rgb(255, 211, 61) 68%, rgb(234, 74, 170) 85%, rgb(179, 75, 255) 100%)=
 0% 0% / 300% 100%; }

@media (prefers-reduced-motion: no-preference) {
  .sponsors-goal-completed-bar { transition: width 0.5s ease-in 0s; animati=
on: 2s linear 0s infinite normal none running sponsors-progress-animation; =
}
}

.sponsors-goals-avatar-border { background-color: var(--color-canvas-defaul=
t); border: 1px solid var(--color-fg-on-emphasis); }

.bulk-sponsorship-secondary-cell { width: 1%; }
…
